model_round_3.pt (torch, 162054 bytes, 6 tensors)

embedding.weight f4 [101, 64]
00000000: 24e1 19bf 0252 cbbf 52f7 4fbf afae 243e
00000010: 6a5a 893f cad7 44bf 0811 66bc bd0d 3d3f
00000020: 24b4 943f 0697 d9be 1a44 77bf 5ab4 0c3f
00000030: 2533 18be 8a7b 9e3f 7e9a 993e 7a24 473f
00000040: 986b 1ebe 27e5 c7bf 6287 bebe 3621 7a3f
00000050: 6814 bdbe 849f c03e e6c2 e1be fa8a 0d3e
00000060: ee95 d4be 2206 613f 22a2 1dbf 296d 90bd
00000070: c9dd aa3e a5c8 2c3f 0238 f7bf 3088 db3f
00000080: c3af 6cbe 544d 66bf c6e8 993f eaf1 03bf
00000090: 6308 44bf 7a20 393f 3805 15bf 8651 ec3d
000000a0: 5e3c 0f3f 4356 ec3f 8718 463f 6d17 913f
000000b0: be4f b93e 1831 a0bf 7eeb 8d3f 6c1c 1e3f
000000c0: 42bc ce3f d0d7 c63e 92bd 703f 32c1 81bf
000000d0: 0ad3 2c3e b6c0 0ebf cee2 823f d062 213f
000000e0: 93db b2bf 8205 013f 62dc 143d 2e25 8dbf
000000f0: 84ed 193f a0de 52bf a52e 6b3f 9cb6 a43f
00000100: e494 433d 1dc1 2040 26b8 7b3e 82a9 c33f
00000110: a452 b6bf 301f 58bf fbee ab3f ce0d bb3f
00000120: 10a9 1940 f5a8 fc3e a277 a5bf 96ae aabf
00000130: f454 cebf e024 023f c27d 8cbe c706 8dbe
00000140: 11a8 a23e dc00 cebc 4e24 673f e2d8 12be
00000150: b660 093f 9c22 343f 7bd1 3b3f 1ef0 df3f
00000160: abe2 0f3f 2400 913f 73bc 8fbf 8896 d03f
00000170: bd68 e4be b399 5fbf 5ea8 993c eef0 0cc0
00000180: dc57 2ebf 38b9 c3bf 69a8 b23e b44f 42bf
00000190: bc2e 563f 48e0 44be 6428 883e acf3 54be
000001a0: 926c 3dbf a20c d4bd d00c 9dbf a091 64bf
000001b0: cd81 383f af72 c43e ecfd 443f f603 173f
000001c0: 2895 823f e61d 423f 4c63 123f 907e b03f
000001d0: c68c f5be 0e45 9fbf 3515 373e c805 80bf
000001e0: 680d 13c0 b78b 9c3d f8f7 083f 202a adbc
000001f0: 6482 943f b243 11be 831c 81be 6ec4 c7be
00000200: 5f9f dbbf 7060 81be 48fa 4ebf 1e13 5f3f
00000210: b151 4dbf f29f 84bf 3262 5d3f c032 5abf
00000220: e7ec aebd e88a 663f 1465 53c0 547d 80bf
00000230: f7be 973e b377 de3f 8632 a3bf 3c10 bfbf
00000240: d8d0 433c 5d38 4c3f d6ca 52bf cdcb 183f
00000250: 6a81 2e3f 4e62 ce3d bc06 e33e b8b8 75bf
00000260: 6494 5cbf 827b 5d3f 4c98 a23d 9b80 95be
00000270: 9235 e93e 42be b03e b122 8f3f bbc0 dfbd
00000280: c0ed 933f 0bd8 dfbe a8e2 ec3f 40f4 f2be
00000290: 2c36 76bf b23d 24be a0df bebe 33de b6bf
000002a0: b8ba 013f a0eb fd3e a75d 0e40 d8df a33f
000002b0: 566a 04c0 1f88 fb3e 56fd f9be 1c6d 993f
000002c0: 16fb d5bc 583a d5bd 5ab8 30bf 8246 0ebe
000002d0: 6483 383f 21ce 87bf 3a41 34be 6819 97bf
000002e0: d055 99bd a49a b63f acb3 43bf f658 90bf
000002f0: be4a aebf 4bda c13e b68f 8ebe a470 2f3f
00000300: a5ad 593f 4797 a03f 3685 9dbe 548b 08be
00000310: eacd 81bf 6578 e9be f6a3 1d40 c808 1b3f
00000320: 9eb8 03bf f81b c33f 05f5 d43e 4e60 a3bf
00000330: 44eb 13c0 2c43 f93e a27e 76bc 4573 7cbf
00000340: e654 8ebe 876b 0740 24b0 84bf b431 e2be
00000350: 8c97 c0be 9aeb 973f df36 c83f 74d1 a7bf
00000360: 5af5 bf3e 24b2 7a3f 3686 203f 746c d1bf
00000370: f6c2 003f 4a77 2abe 5624 3d3e c225 d8be
00000380: ac4d 11be 1f1b 863f 9405 f6bb 360c 13bf
00000390: a3f5 713f 8202 dcbf 0d87 bc3f 3abf 6b3e
000003a0: 5eb2 e73e 096b 683f 10e4 ddbe f6f3 953e
000003b0: ea32 1a3f 8e4c e23e ffd0 b63e f401 bf3f
000003c0: 9ed6 42bf 0a4f 893e e6e7 62bf 3a93 603f
000003d0: 88bb 3dbe a847 1d3e 7f7c 09bd 9b7c 853f
000003e0: e89b debe 48fd 84be 4e54 6b3e b9a8 1f3f
000003f0: 75e5 0540 6d95 e23e 7316 703f cb7e 883e
-0.6010916 -1.5884402 -0.81236756 0.16082262 1.0730717 -0.7689177 -0.0140421465 0.7384909
1.1617475 -0.42498034 -0.9658829 0.54962695 -0.1486326 1.2381451 0.3000068 0.77790034
-0.15470731 -1.5616807 -0.37212664 0.97706926 -0.3692963 0.376217 -0.44094008 0.13822547
-0.41520637 0.8789998 -0.6157552 -0.07052071 0.33372334 0.6749366 -1.9313967 1.7150936
-0.23113923 -0.89961743 1.2024162 -0.51541007 -0.765753 0.7231518 -0.5821109 0.11538987
0.5595149 1.8463825 0.77381176 1.1335274 0.3619365 -1.2514982 1.1087492 0.6176212
1.6151202 0.38836527 0.9403926 -1.0137084 0.1687738 -0.55762804 1.0225465 0.630414
-1.3973259 0.5039903 0.036342986 -1.1026971 0.60128045 -0.8237095 0.9186805 1.2868228
0.047749415 2.5117867 0.24581966 1.5286105 -1.424397 -0.8442259 1.3432306 1.4613588
2.4009438 0.49347654 -1.2927134 -1.3334529 -1.6119676 0.50837517 -0.27439696 -0.27544233
0.3176885 -0.025146894 0.9028977 -0.14340547 0.53663194 0.7036531 0.73366517 1.7495153
0.5620524 1.1328168 -1.1229385 1.6295938 -0.4461116 -0.873439 0.018757042 -2.2022052
-0.6810281 -1.5290899 0.34894112 -0.7590287 0.8366506 -0.19226182 0.26593316 -0.20796078
-0.7399379 -0.10353972 -1.2269535 -0.89284706 0.7207306 0.38368747 0.76949954 0.5899042
1.0201769 0.7582687 0.57182765 1.3788624 -0.47958964 -1.2442949 0.17879184 -1.0001764
-2.2976933 0.07643836 0.5350337 -0.02113825 1.1602292 -0.1418598 -0.25217065 -0.3901705
-1.7158011 -0.25268888 -0.8085065 0.87138546 -0.80202776 -1.0361311 0.8647796 -0.8523369
-0.08541279 0.90055704 -3.3030443 -1.0038247 0.29637882 1.7380279 -1.2749794 -1.4926829
0.011951648 0.79773504 -0.82340753 0.59685975 0.6816622 0.10077344 0.44341075 -0.95984983
-0.86163926 0.8651658 0.079392046 -0.2919968 0.45548683 0.34520155 1.1182462 -0.10925432
1.155693 -0.43719515 1.850667 -0.47451973 -0.9617641 -0.1603916 -0.37279987 -1.428656
0.50675535 0.4959383 2.224466 1.2802687 -2.0689902 0.4912729 -0.48826092 1.1986423
-0.026120704 -0.10411519 -0.690313 -0.13894084 0.72075486 -1.060978 -0.17603007 -1.1804628
-0.074870706 1.4265943 -0.7644603 -1.1277149 -1.361656 0.37861857 -0.27844018 0.6853125
0.85030586 1.2546166 -0.30765694 -0.133344 -1.0140965 -0.45599666 2.4631324 0.60560274
-0.5145358 1.524291 0.41593185 -1.2763765 -2.3112345 0.4868406 -0.01504484 -0.9861339
-0.27799147 2.115938 -1.0366254 -0.44178545 -0.3761562 1.1868775 1.5641745 -1.3110795
0.37491876 0.9792807 0.6270479 -1.6361222 0.50297487 -0.16647068 0.18470892 -0.42216307
-0.14189786 1.0477027 -0.007507989 -0.5744051 0.94515437 -1.7188265 1.4728714 0.23022166
0.4525327 0.9078832 -0.4333806 0.2928769 0.6023394 0.44199032 0.35706326 1.4922471
-0.7610873 0.26818115 -0.886351 0.8772465 -0.18528569 0.15359366 -0.033565994 1.0428652
-0.43478322 -0.25974488 0.22981378 0.62366825 2.09213 0.44254628 0.93784255 0.26659235

lstm.weight_ih_l0 f4 [256, 64]
00000000: dce1 9a3d f218 123d a527 e7bd b62c fbbd
00000010: 07cf 94bd 2c2f c0bc 9a93 6f3d 5774 bd3d
00000020: 847c 933d 2a20 9ebd 8edf 9c3c 1cec 1abd
00000030: 38f5 9f3c f64c ac3d 19c9 8c3d 8983 80bd
00000040: 0866 103b 7269 d63d 38fc c8bc aeff 433d
00000050: d155 583a efa3 27bd 3427 433b 3acf 9f3c
00000060: ff1d 3ebc 5664 78bd 5ce8 88bd 932b 423d
00000070: dfb4 8cbc d1aa 123d 59f9 173d 2bcc f8bc
00000080: f676 0a3d be38 65bd 0269 e83d 2a2c f8bd
00000090: 4541 eb3b 7c6e eaba 2cea a3bc 1e18 e13d
000000a0: e2ae 043c 12b6 e5bd 0bf9 aa3d 0904 1f3c
000000b0: 466b bd3d ac21 f73d 8fad da3d e456 d0bd
000000c0: 1cee 733d e490 c2bd b429 e6bd e6af 26bc
000000d0: a5fd 4abc 84b9 a8bd 1501 9fbc f238 73bd
000000e0: 4dee fa3d 2dda 373b d093 9ebd 2c6a 35bd
000000f0: 3445 423c 3c7d af3d 44ef e93d 317d dcbd
00000100: 4e21 3cbd 2881 953d 76b3 8cbc c098 023d
00000110: 387d f53d c8a0 17bd fa0d a7bd 0cf4 323d
00000120: 460d 563d b675 7f3d bce6 f1ba 9a2d bdbd
00000130: 5ce2 c63d ce25 123d 7000 a93d 5eb1 a1bd
00000140: 66fd 6abd 49a7 f9bd d64b 79bd 2bca 98bd
00000150: b147 023e ea83 1fbd cef1 f53d f8c3 a23d
00000160: d77c d4bd 1c78 cabc 1430 03bd e47d 263d
00000170: 0af5 a53d 8a04 9e3c b044 ffbd e6b5 dcbd
00000180: 53db d63c 7c43 96bd 203f e3bd aea6 d63c
00000190: c0fc 91bd f64e 4dbd b475 80bd 300a dfbd
000001a0: f193 9f3b 0690 6c3d bcbf 53bd 5c2c cd3d
000001b0: 30b4 ccbd b924 823d ecce 623c 7e9d c2bd
000001c0: 8796 803c 0ec2 a3bd ad20 f33c 9671 fcbd
000001d0: 1482 cf3d 3688 d03c b0c2 9abd d4a6 e3bd
000001e0: 54c5 aabd 6a2d 89bd 30b6 213d 1a67 adba
000001f0: b8ab 79bc 5a11 bbbc ce87 b6bc 730f 7abd
00000200: 2ebd 5a3d 65a9 a7bd 81bd 65bd 7542 babd
00000210: 9a6c 213d 02a4 753d 3024 6cbd 46ae d3bd
00000220: f3f1 f43d fc20 213c 66f9 a3bd aa47 bb3c
00000230: ea7a 95bd c4fd b6bc a89f d9bd d4e0 bb3c
00000240: dabc aebc b830 ce3d 407c a2bd 0a34 e63d
00000250: 8599 f73d 0456 2c3d 7193 ed3d 90cc a9bd
00000260: b8e9 83bc a293 babd 58a2 b5bd 3dd6 c53c
00000270: 70e1 c6bd 3f0e 493d 040c e3bd 2435 ea3d
00000280: 283b e7bd 3d24 bebd 8a50 7bbd 4e65 893d
00000290: fabd cc3d 5c3a e03d d264 623d 3ac0 f03d
000002a0: 2a29 7e3c c81a 71bd 0f41 bebd 792a 313b
000002b0: eed4 0e3a 46f5 303b 14f6 89bd fe71 ffbd
000002c0: a5dc a03d c46f c9bd 1430 c43d 4af2 4bbd
000002d0: 7816 c73c dd28 c1bd 9de5 053c 5615 35bc
000002e0: e0d3 4ebd 4866 18bc 1a69 e43d ce86 d2ba
000002f0: 4e54 80bc 46e7 093d 661f a6bd 925c 12bd
00000300: 9025 fbbd 80cd 6d3d 0997 d83d 0837 2cbd
00000310: 00fd c03d 0907 a23c a559 a13d 31bc fc3c
00000320: c00d a23d 86df dd3d 44c9 d9bd 611e 89bd
00000330: 7c26 4abd 6ca8 a33d 4b50 bf3d c265 f43d
00000340: 251a 253d 53f0 ab3c b0cd f63d 98cb 7e3d
00000350: 21d4 123d e64f db3d ff96 7ebd d861 bfbd
00000360: e0d8 f1bd 643a 8bbd 3ff3 f6bd 641b 013d
00000370: dd2d cc3d a402 d23c 4455 833d 4ef9 e23d
00000380: 0668 33bd c03f 9539 6d11 aabc 3ced 733d
00000390: c432 21bc e854 703d ae18 dabd 4855 5bbd
000003a0: f64f 9ebd 5689 99bd 4eb7 81bd 889b d8bd
000003b0: 5a96 e13d f3d9 b63d 1067 f3bc dabf f33c
000003c0: 0c12 693d ac6e a5bd d03a 6b3d 5d71 febd
000003d0: ead2 91bd 6e15 ec3d f208 8ebb 4c9d 363c
000003e0: 78af e3bd c1e8 853d bbf7 c43c d47a d9bc
000003f0: a60c c3bb 4ca9 913d cce1 4bbd 06cf cd3d
0.075626105 0.03566832 -0.112868585 -0.12264387 -0.0726605 -0.023459993 0.058490373 0.09250706
0.07201484 -0.077209786 0.019149568 -0.037822828 0.01952611 0.08413117 0.06874294 -0.06275088
0.0022033472 0.10469331 -0.02453433 0.047851257 0.0008252534 -0.040927824 0.0029778006 0.019507993
-0.011603831 -0.060642563 -0.06684944 0.047404837 -0.01717609 0.035807434 0.03710303 -0.030370792
0.033804856 -0.055962317 0.11348154 -0.121177986 0.0071794116 -0.001788571 -0.020009123 0.10990928
0.008098336 -0.11216368 0.083482824 0.009705552 0.092489764 0.12066969 0.10677635 -0.10172823
0.05955325 -0.09500292 -0.11238423 -0.010173773 -0.012389575 -0.08238509 -0.019409696 -0.05938048
0.122524835 0.0028053627 -0.07743037 -0.044290707 0.01185732 0.085688084 0.114225894 -0.10766066
-0.0459302 0.07300025 -0.017175417 0.031883955 0.11986774 -0.037018567 -0.08156963 0.043689772
0.052258752 0.062368117 -0.0018455605 -0.092372134 0.097111434 0.035680585 0.082520366 -0.07895158
-0.057370566 -0.1219011 -0.06086334 -0.074604355 0.1272266 -0.038944162 0.12009011 0.07947534
-0.10375374 -0.024715476 -0.032028273 0.040647402 0.08103378 0.019289274 -0.12464273 -0.10776882
0.026227629 -0.073370904 -0.110960245 0.026202526 -0.07128286 -0.05012413 -0.0627245 -0.10890615
0.004869931 0.05775454 -0.051696524 0.100182265 -0.099953055 0.063546605 0.013843279 -0.095026955
0.015696777 -0.07995997 0.029678667 -0.12326352 0.10132232 0.025455575 -0.07556665 -0.11115804
-0.083384186 -0.06698115 0.03948039 -0.0013229579 -0.015238695 -0.022835422 -0.022281554 -0.06104989
0.053403072 -0.08186606 -0.056088928 -0.09094707 0.03941021 0.059970863 -0.0576517 -0.103359744
0.11960211 0.009834524 -0.08006553 0.02286132 -0.072988346 -0.022337802 -0.10626155 0.022934355
-0.021330286 0.10067886 -0.07933855 0.112403944 0.120898284 0.04207422 0.11600388 -0.0829097
-0.016102657 -0.0911019 -0.08868855 0.024150008 -0.097109675 0.04908585 -0.11086276 0.11435917
-0.1129058 -0.09284256 -0.061356105 0.067087755 0.09997173 0.10948631 0.05527193 0.11755414
0.015512744 -0.05886343 -0.09289753 0.0027033372 0.0005448599 0.0027001663 -0.06736389 -0.12472914
0.078545846 -0.09835771 0.09579483 -0.04979161 0.024302706 -0.09431622 0.00817242 -0.01105245
-0.05049503 -0.0093017295 0.11152859 -0.0016061903 -0.0156652 0.033667825 -0.081114575 -0.035732813
-0.12263024 0.05805731 0.10575683 -0.04204467 0.09423256 0.019778745 0.078784265 0.030851455
0.07912779 0.10833649 -0.106340915 -0.066952474 -0.049353108 0.07991108 0.093414865 0.11933471
0.040308136 0.020988619 0.120509505 0.06220588 0.035846833 0.10708599 -0.06215572 -0.09344834
-0.11808944 -0.067982465 -0.12058114 0.031520262 0.09969685 0.025636025 0.064127475 0.11082707
-0.043800376 0.00028466992 -0.020760262 0.059552416 -0.009838764 0.058674723 -0.106492385 -0.053548127
-0.07730095 -0.07496898 -0.06333791 -0.1057654 0.110150054 0.08928289 -0.02971223 0.029754568
0.056901976 -0.080777496 0.057429135 -0.12423966 -0.07120307 0.11527525 -0.0043345625 0.011145901
-0.111174524 0.06538535 0.024043908 -0.026547827 -0.0059524355 0.07112369 -0.049775884 0.10049252

lstm.weight_hh_l0 f4 [256, 64]
00000000: 40eb 883d 32ad a6bc a4b5 91bd 5ee9 b53d
00000010: 8cd5 f8bd 921e 09bd 780a 93bd 105a abbd
00000020: 2204 743c c043 5fbd 441c 9c3d 4cf2 16bd
00000030: 3833 3dbd 1a83 b8bd 717a ddbd 3a4c c2bd
00000040: 4e46 fbbd 7c7c 1b3d 80b9 e6bc 8525 87bc
00000050: 1eb0 22bd 07fa 9abd 3359 c5bd b22a 4dbd
00000060: 20b7 d4bd 8a0d b0bd 55ea 9f3d 66ca b2bc
00000070: 5392 1a3d f0f4 ccbd 4e73 b63d cf12 9b3c
00000080: a8c7 bb3d 7670 f53d a8ae d23d cb36 2cbd
00000090: ee0b f43d 6c53 acbd ffe0 763d 3663 b5bd
000000a0: 2955 21bd 9609 143d dce8 ddbd e8d7 ba3d
000000b0: 20d1 18bd 0da7 463d faca c8bd 5a44 b3bd
000000c0: e155 7ebd 8296 f9bd b418 ec3d c66c e63d
000000d0: ae01 81bb cd19 d7bd 4e17 eb3d ce27 3b3d
000000e0: 1895 c13d 12f0 1ebd 58c8 56bd d4e6 1dbd
000000f0: 232c b33c b55b 5ebd 4ac5 fabc da7e 483d
00000100: 703e baba 13b6 823d 30fe 913d 4854 86bd
00000110: f05a 423d 14e1 8c3d 9412 873d 86c0 91bd
00000120: e1b9 5abd 32ab 153d 86c7 fe3c 2881 a0bc
00000130: 2446 a83d bad4 ca3d 1888 a8bd 0030 383d
00000140: 8a87 b73d f406 20bd 5205 85bb b1a2 b2bd
00000150: fc4c a5bd 8e3a e6bc 8e67 1d3d 4c71 63bd
00000160: f5c2 c73d a63a 6abd 06d5 fcbd 3246 113d
00000170: 244b d4bd 7380 dcbc 1730 19bd a71c 6c3c
00000180: 036a f9bd a5a4 893d 6a1e 9d3d d992 d4bd
00000190: 8c3d 363d 7489 743d 84aa 3d3c 4448 89bc
000001a0: 74d4 093d c0d4 753d 1ec5 683d c2f9 b4bd
000001b0: ea29 d1bd 3677 eb3d c659 e33d 8a02 e33d
000001c0: 8ab4 a53d 30e9 ecbd b6c6 30bd 4833 a83d
000001d0: 421d d9bd e869 74bd 289b ca3c 4ae3 1dbd
000001e0: 7939 1a3d b7f8 f8bd 88de d43c 2cc6 eebd
000001f0: 6e7d ea3d 4e5f bbbd 37fd 323d 4203 92bc
00000200: 120b bf3d 72a2 723d 9c5f 8e3c d6b3 f1bd
00000210: a512 72bd 6a1f 71bb 6e24 e63c 6d15 933d
00000220: 9f0a 9f3d f5ee 99bd 0c18 20bd 38a3 b3bd
00000230: efa4 8e3d b80e 8d3d b8c4 4a3d aca4 99bd
00000240: 2c94 b3bd 08b3 c8bd 7ec1 df3d 1ecc c2bd
00000250: 04de 603d bc07 df3d a5e2 c83d 7590 ddbc
00000260: 2a38 853b 09ff 9dbd f6fb 913c 7e45 b8ba
00000270: 8ecd efbd 5090 ddbd 9aca 423d b875 cabc
00000280: 80ab 1b3c a422 c93c 21c8 c6bd 1730 90bd
00000290: b470 6a3d 0aba f33d e574 91bd bdef e43d
000002a0: aea9 ec3d d408 a9bd 0861 eb3d 27ca 8dbd
000002b0: 2165 913d 5430 9c3c baa8 f63b 18cf bdbd
000002c0: cfa9 69bd 748b 8bbd 5f7a 943d ecb6 883c
000002d0: 6810 9abd 5003 ec3d bc7e 7ebd a7ec bdbd
000002e0: aa4b ecbd f665 863d 14fa d83d 5998 a23d
000002f0: 427b 413d 6831 35bd d3b4 82bd e623 8bbd
00000300: 781f f83d a762 96ba be90 6f3d a41a be3d
00000310: 7ae1 c9bc c7b5 2abd f132 d33d 9cbd 293d
00000320: ba8f 2abd f4ef f13d 5cff e33d 20d3 8e3d
00000330: 9092 d53d 4672 a6bd 0edc 68bd 93c8 44bc
00000340: 667d f53d ba1a bdbd 6641 603d 46a7 b7bd
00000350: bb8a f63b 9a54 afbd e283 b8bd d664 9a3c
00000360: f4a9 b5bd a30c 653d c84b f53d 22f8 323d
00000370: 2848 d83d c967 efbc b64e f83d dc63 113d
00000380: c0d6 233d 686e c73d 5abb cd3b 4998 9cbd
00000390: 8a35 a13d 3d06 463d 6ef5 38ba 1612 b6bd
000003a0: c67b d4bd eaed e0bd c6ea d93c 409b 12bd
000003b0: 2ceb c53c c88d 18bc e258 eebd 59ff 403d
000003c0: f4b1 ddbd 5e0b 9bbd 73c7 edbd 600a d9bb
000003d0: df51 91bc 277f cbbd ae3f 393d 3bf9 efbd
000003e0: 6610 20bd 3bc1 893d 528b 9e3d aa29 83bd
000003f0: e806 a2bd a4c8 5b3c 4f37 3e3d 91ea 79bd
0.066854954 -0.020346258 -0.07114723 0.08882402 -0.12150106 -0.03347642 -0.07179731 -0.083667874
0.014893563 -0.05450797 0.07622579 -0.036852166 -0.046191424 -0.09009381 -0.108143695 -0.09487195
-0.12269269 0.037960514 -0.028164625 -0.016497383 -0.03971874 -0.0756722 -0.09636154 -0.050089546
-0.10386491 -0.08596332 0.07808367 -0.021825027 0.037737202 -0.100076556 0.089087114 0.018929867
0.09168941 0.11984341 0.10287219 -0.042044442 0.11916338 -0.08414349 0.060273167 -0.088568136
-0.039387856 0.036141954 -0.1083543 0.09123212 -0.037308812 0.048499156 -0.0980434 -0.087532714
-0.06209362 -0.1218691 0.11528149 0.11251216 -0.003936968 -0.10502968 0.114790544 0.045692258
0.094522655 -0.038803168 -0.052437156 -0.038550213 0.021871632 -0.054286677 -0.030611653 0.0489491
-0.0014209282 0.06382384 0.071285605 -0.06559044 0.047450006 0.06878868 0.0659534 -0.07116799
-0.053399924 0.036540218 0.031101 -0.019592836 0.08216503 0.099038556 -0.08229083 0.04496765
0.08961399 -0.03906913 -0.004059472 -0.08722437 -0.08071324 -0.028104093 0.038428836 -0.05552797
0.09753982 -0.057184838 -0.123453185 0.035467334 -0.103658944 -0.026916718 -0.037399378 0.014411128
-0.12178423 0.067208566 0.07671817 -0.103795715 0.04449229 0.059701398 0.011576299 -0.016758092
0.033649877 0.060017347 0.05682861 -0.088367 -0.102130726 0.11497347 0.11101107 0.11084469
0.08091076 -0.115679145 -0.043158256 0.08212906 -0.106012836 -0.059671313 0.024732187 -0.038546838
0.037652466 -0.121568136 0.025985017 -0.11658892 0.11449705 -0.09149037 0.043698516 -0.01782382
0.09328283 0.05923695 0.017379574 -0.11801879 -0.059099812 -0.0036792406 0.028093543 0.07181821
0.07765698 -0.075162806 -0.039085433 -0.08771366 0.06965052 0.06887573 0.049504012 -0.07502112
-0.08768496 -0.097997725 0.109255776 -0.095115885 0.05489923 0.10890147 0.09808854 -0.027046422
0.004065533 -0.0771466 0.01782034 -0.0014058796 -0.11709128 -0.10818541 0.047556497 -0.024714336
0.009501338 0.02455265 -0.0970614 -0.070404224 0.05723639 0.119007185 -0.07102374 0.11178539
0.11555801 -0.08253637 0.114931166 -0.06923323 0.07099367 0.019066013 0.007527438 -0.092680156
-0.057046708 -0.06813708 0.07249903 0.016688786 -0.075226605 0.11524069 -0.062132582 -0.092736535
-0.11537869 0.06562416 0.105945736 0.07939214 0.04723669 -0.04423657 -0.06382146 -0.067939565
0.12115377 -0.0011473492 0.058487646 0.09282425 -0.024643648 -0.041677263 0.10312451 0.04144059
-0.041640975 0.118133456 0.1113269 0.06973863 0.10428345 -0.08127265 -0.056850486 -0.012010711
0.119868085 -0.09233613 0.05474987 -0.08967452 0.007523862 -0.08561058 -0.0900953 0.01884691
-0.088703066 0.055920254 0.11977345 0.04369367 0.10560638 -0.029224293 0.12124388 0.035495624
0.039999723 0.09737855 0.0062784376 -0.076462336 0.0787154 0.048345793 -0.0007055615 -0.08890168
-0.103751704 -0.109828785 0.026601207 -0.03579259 0.02415999 -0.009311147 -0.11638047 0.04711852
-0.108249575 -0.075705275 -0.116103075 -0.0066235512 -0.017739234 -0.09936362 0.045226745 -0.11717459
-0.03907814 0.06726309 0.07741417 -0.06404431 -0.079114735 0.013414536 0.046439465 -0.061014716

lstm.bias_ih_l0 f4 [256]
00000000: 7acd d93d ae0e 08bd 9844 ef3d c4c5 e73d
00000010: 8b33 443d 5af1 b83c 14ac eabd 68a9 88bd
00000020: 5a8c aebd 06db e03c 0f92 dcbb 42f0 5b3d
00000030: b420 403d 8416 ba3c b6d2 b73d 56fa 8b3d
00000040: f647 803b 98ff 27bd 7030 87bd 2a28 dfbd
00000050: 7c65 72bb ceea 00be a41c bcbd 1de2 443d
00000060: 1f25 94bd e775 80bd 2e26 af3d 7c57 c0bd
00000070: 3eb9 9f3d 10f0 043d 6e08 bdbd acae 303c
00000080: d377 ec3d b061 4ebc 4beb 1e3d 1cac f2bd
00000090: 6208 72bd 7e22 53bb e52b 96bd 8270 24bd
000000a0: aa0b fb3d 158f 863d cdf2 4d3d 0ada c5ba
000000b0: 9f48 48bc a5f7 173d a8be 6c3d f4c9 7ebd
000000c0: 0a5b ac3d 9afe 47bd b2d3 903d 56ae ca3c
000000d0: be3c fcbd 547a f63c 36f3 903d 5dcf c1bd
000000e0: 3672 0ebd 9702 d63c 963f 7f3c ea98 f2bd
000000f0: 6a66 e8bc 90bc 3e3d e455 98bd fc29 683c
00000100: 1868 3a3d 28e7 403c 9c0f d03d aef9 0fbd
00000110: f661 49bd d823 543d d239 6abb e85b 91bd
00000120: 12bf e63d fc8e 44bc 94aa 95bd 050e fbbc
00000130: ac71 0d3d e623 ebbd 7900 7bbd 150a 00be
00000140: 2393 abbd 224e 46bd 3826 e23d d2c7 503d
00000150: 540a 95bd daac dfbc ee89 f13c f409 dcbd
00000160: 2cd2 243d 0268 0bbd 65ce d8bd 6b63 ccbd
00000170: 2a6f fd3c 0667 e2bd 7a40 ec3c 144c 0aba
00000180: f645 04bd ffe8 e5bd 01a7 36ba dcfd cd3d
00000190: 2c07 d93d 2424 63bc d9d2 3a3b 94f8 87bd
000001a0: 80b2 933d fe9f 8dbc 22f1 9d3d ccfb bc3d
000001b0: ba34 81bd e4ea 98bd e4fb e13d c223 ed3d
000001c0: 7a3e a8bd da24 20bc 8061 19bd 6a5e f93d
000001d0: a06c 75bc 4075 a2bd 3c5f 4d3d 24b8 c1bd
000001e0: 8821 cdbd ea74 40bd a7b9 a43d c645 d53c
000001f0: 563d 973d 48ef bdbd 8007 cd3d ee4c 223c
00000200: d6a7 cbbc 78d6 28b8 4239 e63d 705d b63d
00000210: 1034 f23c 2211 a5bd 6ec6 e3bc 7840 cdbd
00000220: 8027 b7bd a7c1 83bd d831 80bd e6ae efbd
00000230: ee5d ab3d 7ac0 9ebd b635 453d 842f f03d
00000240: 4220 0c3d d5f6 adbb 3c50 c33d 6b7e abbd
00000250: 9c01 833b f624 493c 94f4 5f3d 03a2 f2bd
00000260: 328f 8fbd c875 8bbc 278e 793b e078 f23c
00000270: 9010 6dbd 8c46 ce3d 6996 99b9 b63d b93d
00000280: 5486 9dbd 339c d73d 55f4 463d 8622 1abc
00000290: 74b4 903d 4c3e f1bd d430 c0bd 4eb9 fd3d
000002a0: e0de 733d ba35 dd3d 9bca fdbd 0816 6b3d
000002b0: c192 b2bd 0615 9cbd f023 853b 4c78 8ebc
000002c0: ee18 a83d 64b4 463c 06fd a73c 781e 843d
000002d0: eac2 f2bc 4bbb c5bd 7c1f b3bd 0ab0 92bd
000002e0: bea5 7abc 29f6 babd 0bba 7fbd 3a3a 613d
000002f0: 40e4 ac3d 6a94 cf3d 13e7 70bd bc80 873d
00000300: b2b8 82bd 394c dcbd f9ba dbbd 46c1 5e3c
00000310: a03b fabd 7c51 ca3d 78d2 bf3b 6770 ae3d
00000320: 35df cfb9 0d52 783d 3e93 cdbd a8e5 55bd
00000330: e26e dcba d691 b6bd f3c9 2cbc c8db ab3d
00000340: 6cba 223b a4c4 823d aa22 bdbd a4e1 6f3d
00000350: 26a3 683d e68d 163c 64c4 c6bd 27be cd3d
00000360: 66d3 c23d fcbf 2abd 3c3e 6ebd 505c 95bd
00000370: b043 173c 8620 96bd af1a c0bd 4a21 b7bd
00000380: 6ffd b5bd 140b afbc 501c b03d a0de 843b
00000390: 98d5 52bd d4ec 6d3d 9685 eebc b0ba 0ebd
000003a0: 60f5 583d 99f3 b4bd a461 d3bd 1c6e b73b
000003b0: 7c52 923d 6e08 6bbd d3b4 7b3d 9417 643d
000003c0: fea1 2fbd 3db5 943d d7e9 493d b2a4 ec3d
000003d0: 5ebc a8bd 1565 95bd aaef 5dbd 8668 c1bc
000003e0: 58f6 553d 9850 b73b e86c c03d 88f6 bc3d
000003f0: f4dd de3d f6ec d33d 8ab8 8dbd 2f6f 713d
0.10634895 -0.033217125 0.11683005 0.11317018 0.047900718 0.022576023 -0.114586025 -0.06672937
-0.08522864 0.027448189 -0.0067312787 0.053695925 0.046906188 0.022715814 0.08975737 0.06834857
0.0039148284 -0.041015238 -0.066010356 -0.108963326 -0.003698676 -0.12589571 -0.0918515 0.0480672
-0.07233643 -0.06272488 0.08552204 -0.09391686 0.07799004 0.032455504 -0.092301235 0.0107838325
0.11546292 -0.012596533 0.03879861 -0.118492335 -0.059090026 -0.0032216604 -0.07332591 -0.04014636
0.12258084 0.065702595 0.05028038 -0.0015094888 -0.0122243455 0.037101407 0.05779901 -0.062204316
0.08415802 -0.04882679 0.07071628 0.024741333 -0.12316273 0.030087627 0.07077639 -0.094633795
-0.03477689 0.026124282 0.015579125 -0.11845572 -0.028369147 0.046566546 -0.07438257 0.014170166
0.045509428 0.011773862 0.10159227 -0.035150222 -0.04916569 0.051791996 -0.003574003 -0.07097608
0.112669125 -0.011996981 -0.07307926 -0.030646333 0.034532234 -0.114814565 -0.061279748 -0.12503846
-0.083776735 -0.048414357 0.11042446 0.050971813 -0.072773606 -0.027304102 0.029484715 -0.10744086
0.040239498 -0.034034736 -0.10586242 -0.099799 0.030936796 -0.110548064 0.028839339 -0.0005275619
-0.032293282 -0.11226081 -0.00069676345 0.100581855 0.10597071 -0.013863597 0.0028507023 -0.066392094
0.072117805 -0.017288204 0.07712008 0.09227714 -0.06308885 -0.07466677 0.110343724 0.11579086
-0.082150415 -0.009774411 -0.0374465 0.12176211 -0.0149795115 -0.0793252 0.05013965 -0.0945895
-0.10016161 -0.046986498 0.08043223 0.026034247 0.07384746 -0.09274155 0.10011196 0.009906037
-0.024860304 -4.025406e-05 0.1124139 0.089045405 0.029565841 -0.080599084 -0.02780458 -0.10022062
-0.08943081 -0.06433421 -0.06259507 -0.11703281 0.08367525 -0.07751556 0.048146926 0.11727813
0.03421045 -0.0053089657 0.09536788 -0.08373722 0.0039979946 0.012276879 0.054676607 -0.118473075
-0.07009734 -0.017023936 0.0038079114 0.029598653 -0.057877123 0.100720495 -0.00029294498 0.090449736
-0.07691637 0.105278395 0.048572857 -0.009407645 0.07065669 -0.1177946 -0.09384313 0.1238886
0.059538722 0.10801263 -0.123921596 0.057394058 -0.08719397 -0.076211974 0.004063122 -0.017391346
0.0820788 0.012127969 0.020506393 0.06451124 -0.029633958 -0.09654864 -0.087462395 -0.07162483
-0.015298305 -0.091289826 -0.062433284 0.05498717 0.08441973 0.101357296 -0.05881412 0.06616351
-0.06382884 -0.10756726 -0.107290216 0.013595885 -0.12218404 0.09878823 0.0058539473 0.08517533
-0.0003964842 0.060625125 -0.1003785 -0.05222097 -0.0016817714 -0.08914535 -0.010546195 0.08391529
0.0024830354 0.063851625 -0.09235127 0.058564797 0.056796215 0.009189105 -0.09705427 0.10046034
0.09512977 -0.041686997 -0.05816482 -0.07292998 0.009232447 -0.07330422 -0.093800895 -0.08941896
-0.08886229 -0.021367587 0.0859915 0.0040548593 -0.05147323 0.058087185 -0.029116433 -0.034846008
0.052968383 -0.08835525 -0.10321358 0.005597843 0.07144639 -0.057381086 0.061451744 0.05568655
-0.042879097 0.07261131 0.049295273 0.11554851 -0.08239053 -0.072946705 -0.05418364 -0.023609411
0.052236885 0.0055943243 0.09395772 0.092267096 0.10882178 0.10347931 -0.06919964 0.058943924

lstm.bias_hh_l0 f4 [256]
00000000: 10a1 d3bc 037d 803d 1ea0 ccbd 1f1a 03bd
00000010: 618e 52bd aa9a 5fbc 88f9 f9bd 5076 a7bd
00000020: 6883 9e3d a526 da3d 0925 4f3d 3696 e7bd
00000030: ecbb 383d 623f 813d ee3a 56bb 529b fdbc
00000040: f49a 04bd 2c6f 1abd f20a afbd 28eb 0fbd
00000050: 0438 703b 9821 84bd ecf4 1fbd eff2 f13d
00000060: 67e8 a6bd 12af 6c3d fc07 0c3d 6ae0 e7bd
00000070: 44ac 9bbc c9ae 933c 766c fdbd f229 b03d
00000080: 56ae 673d 3e63 c93d 57ad 5b3d 349a 0fbd
00000090: 2521 f43a 4e3e 483d 06d5 f7bb a13c a1bd
000000a0: 9ab4 71ba f78b b5bd 09d5 3a3d 81c7 54bd
000000b0: b427 c63d ddcd 753d c0ef a9bd d81a 32bd
000000c0: 4281 a4bd 6adc 363d c4d8 f0bd 001a c53d
000000d0: ef25 8eba 54f6 f2bd dcb8 f03d 102d 813c
000000e0: d2e9 9a3d 3ede 66bd c752 92ba 7011 d53d
000000f0: 1650 dc3c e5fa 36bc ee38 a43d 3a5b f73d
00000100: 5ef1 33ba 462b b4bd 7ced 96bb 71fa d93d
00000110: 84e8 f7bd 04ca 8a3d 86aa ebbd 9047 773b
00000120: 4a28 733d 5123 e73d bc8e 91bd 6167 27bd
00000130: 5d27 f03d 2cd1 b23b b822 93ba 5465 b93c
00000140: ad2c f3bd 5ef7 fb3c f855 bd3c 8752 cb3c
00000150: 6677 a13d bca6 c5bd 1866 a03d fca8 a43d
00000160: 1215 ac3d 5ea0 b83d 4c4c 0f3c 733c 71bd
00000170: e653 143d 5495 123d 8dc1 65bc fc39 7abd
00000180: 8271 5d3d 352c acbd a00f 043d d54c e2bc
00000190: 40ce f63d 4688 78ba e875 5bbd f0f9 debd
000001a0: fa20 103d 8884 443d fa9a fbbd 707c 87bd
000001b0: 2a66 5ebd 0473 f6bc a062 853c 3c23 e4bd
000001c0: ee17 dcbd c6db 3b3d e2b5 f4ba 40fa d1bd
000001d0: 2d91 dfbd 1a37 a53d 2422 73bd 2bfa 153d
000001e0: 62ac b0bd da29 4cbd 6d43 bfbd a6ba 81bb
000001f0: 92b2 32bd acc3 2dbd 0a78 913d dafc a5bd
00000200: 24dd f33d 9c94 9ebd 6e0f a93d 4c96 31bd
00000210: df8d ffbc 6268 e9bd de10 edbc 2cbf e9bd
00000220: 4f5f 5e3d 655f e93d ccea 8cbd a23d 893d
00000230: 82f7 6d3d 0a9d 35bd 3e32 82bc 96d1 3b3b
00000240: 3830 c13c 3e1c 8dbd 24ac cd3d f10e dfbd
00000250: 1f0a f43c 76b7 de3d 00d3 a03d 9991 d6bd
00000260: 061d 323d a231 94bd 0a95 32bd 12ee 933d
00000270: ec45 003e 3eed a23d fe02 423d 7e59 d6bd
00000280: 62fd c63d e214 4cbd 5329 3bbd 0d5b 80bc
00000290: 38e1 d13d a852 ca3d dcae ffbd 4cf9 6abd
000002a0: e050 d03c fedc 683c 0121 d8bd 31ff febd
000002b0: e372 e83d 5edd c2bd 16ba efbd 30ac dc3d
000002c0: 2c9b b5bd 70fa c9bd 4209 96bd 44ea e6bd
000002d0: ba2c 343d 0d84 fb3d 9887 8a3d eaee 46bd
000002e0: 06c5 5dbd 4f22 9d3d 7814 2dbc 183d 9ebd
000002f0: 96c9 c6bc 5594 61bd 1132 c83d 61b1 73bd
00000300: 7884 a23d 26df ba3c d24a a63c 29c6 7cbd
00000310: d82a f0bb 04cd e6bd 2a91 febc d1ba 9c3d
00000320: e2b5 93bd 3605 b33d 6495 23bc 63f5 96bd
00000330: 8f46 bf3d 10a4 e4bd ee12 77bd e81f 2a3d
00000340: e0e3 0f3d 22da 91bc fa64 e8bc 3eb5 abbd
00000350: 96a0 c4bd 94e2 8a3d e07a 71bd 8ddd b33d
00000360: 864a bfbd fc6f 13bd 0c6b 46bd 8c5e 61bc
00000370: 70b3 d63d cc2e d1bc b37e 973d abfe cb3c
00000380: 5b54 cdba 48bb 253c e4af bb3d de46 8dbb
00000390: 6f17 bfbd 08a9 7fbd b48d 0c3d 20d9 2b3d
000003a0: e8b7 9fbc bdfe 863c 02bf 973d a4dc 00bd
000003b0: aab4 f3bd 3d42 ef3c a0ba abbd 8c34 dd3c
000003c0: bc75 843d ab8f babd 9f80 613d 66bb 6b3d
000003d0: e6ae d3bc 67e1 d43d 3404 96bd b2b5 9bbd
000003e0: 00e3 633d affd e93c 76bf 5f3d 9038 ae3d
000003f0: 002d c53d 1bf0 3b3d d245 3abd 1d22 56bd
-0.025833637 0.06273844 -0.099914774 -0.032007333 -0.051405314 -0.013647715 -0.122057974 -0.08176863
0.077399075 0.10651902 0.05057243 -0.11307947 0.04510109 0.063109174 -0.0032688933 -0.030957852
-0.032374337 -0.037703678 -0.085470095 -0.03513637 0.0036654482 -0.0645172 -0.039051935 0.11813914
-0.08149796 0.057784148 0.034187302 -0.113221005 -0.019003041 0.01802768 -0.12374203 0.086017504
0.056562744 0.09833382 0.053632107 -0.03505917 0.00186256 0.048887543 -0.007563236 -0.07872892
-0.0009220332 -0.08864587 0.045613322 -0.051948074 0.096755415 0.06001078 -0.08297682 -0.04348263
-0.080324665 0.044643797 -0.11760095 0.096241 -0.0010845045 -0.118633896 0.11754009 0.015768558
0.07564129 -0.05636429 -0.0011163586 0.104037166 0.026893657 -0.011168216 0.08018671 0.12077947
-0.00068642746 -0.08797316 -0.004605947 0.10643471 -0.12104896 0.06776813 -0.11507134 0.0037731864
0.059364595 0.11286033 -0.071073025 -0.040870074 0.11726258 0.005457064 -0.0011225557 0.022631325
-0.118737556 0.030757602 0.023112282 0.024819626 0.078841016 -0.09650943 0.07831973 0.08040044
0.08402456 0.090149626 0.008746218 -0.05889554 0.036212824 0.03578694 -0.014023197 -0.061090454
0.054063328 -0.08406869 0.032241464 -0.027624527 0.12051058 -0.00094807555 -0.05357924 -0.108875155
0.0351877 0.047977954 -0.12285419 -0.066155314 -0.05429665 -0.03008414 0.01628238 -0.11139533
-0.10746752 0.04586389 -0.0018669928 -0.102528095 -0.10916362 0.080671504 -0.05935873 0.036615532
-0.086266294 -0.0498446 -0.09339032 -0.003959018 -0.04362733 -0.042422935 0.07102974 -0.08104868
0.119074136 -0.07743189 0.08254896 -0.043356225 -0.03119558 -0.113968626 -0.028938707 -0.11413416
0.054290112 0.11395148 -0.068807214 0.06701209 0.05809737 -0.044339217 -0.015893098 0.0028658859
0.023582563 -0.068901524 0.10042599 -0.10891522 0.029789982 0.10874836 0.07852745 -0.10476989
0.04348471 -0.07236029 -0.043599166 0.07223143 0.12526673 0.079554066 0.047366135 -0.10466288
0.09716298 -0.049824603 -0.045693707 -0.015668416 0.10248035 0.09879047 -0.12484524 -0.057366654
0.02542919 0.014212845 -0.1055317 -0.12451018 0.11350038 -0.09514879 -0.11705415 0.1077503
-0.08867487 -0.0986222 -0.073259845 -0.11275151 0.043987967 0.12281046 0.06764144 -0.04856769
-0.054142974 0.076725595 -0.010563962 -0.077264965 -0.024266046 -0.0550731 0.097751744 -0.059495334
0.07935423 0.022811484 0.020299349 -0.061712418 -0.007329326 -0.112695724 -0.031075079 0.0765282
-0.07212426 0.08741228 -0.009984348 -0.073710226 0.0933963 -0.11164105 -0.060320787 0.041534334
0.035129428 -0.01780421 -0.028368462 -0.083841786 -0.09600942 0.067814976 -0.058955073 0.08782492
-0.09340386 -0.03599547 -0.04844193 -0.013755452 0.10483444 -0.02553501 0.07397213 0.024901709
-0.0015665399 0.010115452 0.09164408 -0.0043114265 -0.093306415 -0.06241706 0.034314826 0.041955113
-0.019496873 0.01647889 0.07409479 -0.03146042 -0.11899693 0.02920639 -0.08385205 0.027002595
0.064677685 -0.09109434 0.055054303 0.057551764 -0.025840234 0.103945546 -0.073250204 -0.07603015
0.055636406 0.028563349 0.05462595 0.08506882 0.09627724 0.04588328 -0.045476742 -0.052278627

fc.weight f4 [1, 64]
00000000: b985 69bc 5a6b c2bc 7456 ae3d 28f6 babd
00000010: 6c52 a2bc be00 7b3d 0c9c 843c 9b69 803d
00000020: 24d9 d8bd 4814 733d 988e 92bd dff1 a03a
00000030: 95b7 b9bb 167d d93d 29aa cbbd 3ad1 e1bd
00000040: 18bd 013d 388e a2bd f455 9a3d 99d0 8e3d
00000050: 8a4f e63d 40dd b2bd 4c30 973c 723f 1d3c
00000060: e27b d63d c418 773d 51f6 8f3c bbaa d13d
00000070: 5c9c 673d 169e 90bd 7a5d 713d 2517 943c
00000080: 7663 0bbd f1c3 cd3d 9e84 fcbd 36d1 7d3c
00000090: 8244 753d c546 b13c 66ca 90bd d28f 1d3d
000000a0: 6b17 a2bd 608c 9dbd aff0 afbc bcb4 643a
000000b0: f05c a63b e81a ab3d 04b8 df3d be86 25bd
000000c0: 525a a53d 891b c83d 1eb1 b43d 9421 b7bd
000000d0: 0106 df3c c66c 7d3d 5a65 363d cec1 7fbd
000000e0: e627 c9bd c49b b83d 8e26 edbb a475 19bb
000000f0: ac64 653d 1fb3 1ebd fed2 90bd 69aa 733d
-0.014253073 -0.02373283 0.085125834 -0.09128982 -0.019814692 0.061280005 0.01618769 0.06270143
-0.10588291 0.059345514 -0.07156104 0.0012279114 -0.0056676366 0.106195614 -0.09944565 -0.11026235
0.031674474 -0.07937282 0.075359255 0.069733806 0.112456396 -0.08733606 0.018455647 0.009597646
0.104728475 0.060326353 0.017573508 0.102376424 0.0565456 -0.070614025 0.058927037 0.018077442
-0.0340304 0.100471385 -0.12329982 0.015491774 0.059879787 0.02164019 -0.070698544 0.038467236
-0.07914623 -0.0769279 -0.021477072 0.0008724441 0.005076997 0.08354741 0.1092377 -0.040411703
0.08073868 0.09770877 0.08822845 -0.089419514 0.027224543 0.061871313 0.04453025 -0.062440686
-0.09822063 0.09014085 -0.007237262 -0.0023416067 0.05600421 -0.038745042 -0.070714936 0.059488688
